…
gs': '{}', '_episode_storage': 'None', 'train_freq': "TrainFreq(frequency=1, unit=<TrainFrequencyUnit.STEP: 'step'>)", 'use_sde_at_warmup': 'False', 'exploration_initial_eps': 1.0, 'exploration_final_eps': 0.0, 'exploration_fraction': 0.09, 'target_update_interval': 100, '_n_calls': 0, 'max_grad_norm': 10, 'exploration_rate': 0.0, 'lr_schedule': '<function get_schedule_fn.<locals>.<lambda> at 0x0000027F74813A60>', 'policy': 'DQNPolicy(\n  (q_net): QNetwork(\n    (features_extractor): FlattenExtractor(\n      (flatten): Flatten(start_dim=1, end_dim=-1)\n    )\n    (q_net): Sequential(\n      (0): Linear(in_features=3, out_features=256, bias=True)\n      (1): ReLU()\n      (2): Linear(in_features=256, out_features=256, bias=True)\n      (3): ReLU()\n      (4): Linear(in_features=256, out_features=2, bias=True)\n    )\n  )\n  (q_net_target): QNetwork(\n    (features_extractor): FlattenExtractor(\n      (flatten): Flatten(start_dim=1, end_dim=-1)\n    )\n    (q_net): Sequential(\n      (0): Linear(in_features=3, out_features=256, bias=True)\n      (1): ReLU()\n      (2): Linear(in_features=256, out_features=256, bias=True)\n      (3): ReLU()\n      (4): Linear(in_features=256, out_features=2, bias=True)\n    )\n  )\n)', 'q_net': 'QNetwork(\n  (features_extractor): FlattenExtractor(\n    (flatten): Flatten(start_dim=1, end_dim=-1)\n  )\n  (q_net): Sequential(\n    (0): Linear(in_features=3, out_features=256, bias=True)\n    (1): ReLU()\n    (2): Linear(in_features=256, out_features=256, bias=True)\n    (3): ReLU()\n    (4): Linear(in_features=256, out_features=2, bias=True)\n  )\n)', 'q_net_target': 'QNetwork(\n  (features_extractor): FlattenExtractor(\n    (flatten): Flatten(start_dim=1, end_dim=-1)\n  )\n  (q_net): Sequential(\n    (0): Linear(in_features=3, out_features=256, bias=True)\n    (1): ReLU()\n    (2): Linear(in_features=256, out_features=256, bias=True)\n    (3): ReLU()\n    (4): Linear(in_features=256, out_features=2, bias=True)\n  )\n)', 'batch_norm_stats': '[]', 'batch_norm_stats_target': '[]', 'exploration_schedule': '<function get_linear_fn.<locals>.func at 0x0000027F78E0D440>', '_logger': '<stable_baselines3.common.logger.Logger object at 0x0000027F7A5A7A10>'}
2025-07-22 14:08:16,392 INFO    MsgRouterThr:3388 [mailbox.py:close():129] [no run ID] Closing mailbox, abandoning 1 handles.
