…
    value: <function get_schedule_fn.<locals>.<lambda> at 0x000002545783B740>
max_events:
    value: 2200000
max_events_intra:
    value: 200000
max_grad_norm:
    value: 10
memory_capacity:
    value: 300000
mode:
    value: train
n_envs:
    value: 1
normal_prices:
    value: true
num_timesteps:
    value: 0
observation_space:
    value: Box(-inf, inf, (3,), float32)
optimize_memory_usage:
    value: "False"
policy:
    value: |-
        DQNPolicy(
          (q_net): QNetwork(
            (features_extractor): FlattenExtractor(
              (flatten): Flatten(start_dim=1, end_dim=-1)
            )
            (q_net): Sequential(
              (0): Linear(in_features=3, out_features=30, bias=True)
              (1): LeakyReLU(negative_slope=0.01)
              (2): Linear(in_features=30, out_features=30, bias=True)
              (3): LeakyReLU(negative_slope=0.01)
              (4): Linear(in_features=30, out_features=30, bias=True)
              (5): LeakyReLU(negative_slope=0.01)
              (6): Linear(in_features=30, out_features=30, bias=True)
              (7): LeakyReLU(negative_slope=0.01)
              (8): Linear(in_features=30, out_features=30, bias=True)
              (9): LeakyReLU(negative_slope=0.01)
              (10): Linear(in_features=30, out_features=2, bias=True)
            )
          )
          (q_net_target): QNetwork(
            (features_extractor): FlattenExtractor(
              (flatten): Flatten(start_dim=1, end_dim=-1)
            )
            (q_net): Sequential(
              (0): Linear(in_features=3, out_features=30, bias=True)
              (1): LeakyReLU(negative_slope=0.01)
              (2): Linear(in_features=30, out_features=30, bias=True)
              (3): LeakyReLU(negative_slope=0.01)
              (4): Linear(in_features=30, out_features=30, bias=True)
              (5): LeakyReLU(negative_slope=0.01)
              (6): Linear(in_features=30, out_features=30, bias=True)
              (7): LeakyReLU(negative_slope=0.01)
              (8): Linear(in_features=30, out_features=30, bias=True)
              (9): LeakyReLU(negative_slope=0.01)
              (10): Linear(in_features=30, out_features=2, bias=True)
            )
          )
        )
policy_class:
    value: <class 'stable_baselines3.dqn.policies.DQNPolicy'>
policy_kwargs:
    value: '{''net_arch'': [30, 30, 30, 30, 30], ''activation_fn'': <class ''torch.nn.modules.activation.LeakyReLU''>}'
price_offset:
    value: 0
price_std:
    value: 0.3
proba_0:
    value: 0.5
prop_deter_strats:
    value: 0
prop_greedy_eps:
    value: 0.25
q_net:
    value: |-
        QNetwork(
          (features_extractor): FlattenExtractor(
            (flatten): Flatten(start_dim=1, end_dim=-1)
          )
          (q_net): Sequential(
            (0): Linear(in_features=3, out_features=30, bias=True)
            (1): LeakyReLU(negative_slope=0.01)
            (2): Linear(in_features=30, out_features=30, bias=True)
            (3): LeakyReLU(negative_slope=0.01)
            (4): Linear(in_features=30, out_features=30, bias=True)
            (5): LeakyReLU(negative_slope=0.01)
            (6): Linear(in_features=30, out_features=30, bias=True)
            (7): LeakyReLU(negative_slope=0.01)
            (8): Linear(in_features=30, out_features=30, bias=True)
            (9): LeakyReLU(negative_slope=0.01)
            (10): Linear(in_features=30, out_features=2, bias=True)
          )
        )
q_net_target:
    value: |-
        QNetwork(
          (features_extractor): FlattenExtractor(
            (flatten): Flatten(start_dim=1, end_dim=-1)
          )
          (q_net): Sequential(
            (0): Linear(in_features=3, out_features=30, bias=True)
            (1): LeakyReLU(negative_slope=0.01)
            (2): Linear(in_features=30, out_features=30, bias=True)
            (3): LeakyReLU(negative_slope=0.01)
            (4): Linear(in_features=30, out_features=30, bias=True)
            (5): LeakyReLU(negative_slope=0.01)
            (6): Linear(in_features=30, out_features=30, bias=True)
            (7): LeakyReLU(negative_slope=0.01)
            (8): Linear(in_features=30, out_features=30, bias=True)
            (9): LeakyReLU(negative_slope=0.01)
            (10): Linear(in_features=30, out_features=2, bias=True)
          )
        )
replay_buffer:
    value: <stable_baselines3.common.buffers.ReplayBuffer object at 0x000002545782D400>
replay_buffer_class:
    value: <class 'stable_baselines3.common.buffers.ReplayBuffer'>
replay_buffer_kwargs:
    value: '{}'
risk_aversion:
    value: 0
safety_test:
    value: false
sde_sample_freq:
    value: -1
seed:
    value: 42
…
