…
rgs': '{}', '_episode_storage': 'None', 'train_freq': "TrainFreq(frequency=1, unit=<TrainFrequencyUnit.STEP: 'step'>)", 'use_sde_at_warmup': 'False', 'exploration_initial_eps': 1.0, 'exploration_final_eps': 0.0, 'exploration_fraction': 0.15, 'target_update_interval': 50, '_n_calls': 0, 'max_grad_norm': 10, 'exploration_rate': 0.0, 'lr_schedule': '<function get_schedule_fn.<locals>.<lambda> at 0x0000014C5A624CC0>', 'policy': 'DQNPolicy(\n  (q_net): QNetwork(\n    (features_extractor): FlattenExtractor(\n      (flatten): Flatten(start_dim=1, end_dim=-1)\n    )\n    (q_net): Sequential(\n      (0): Linear(in_features=3, out_features=30, bias=True)\n      (1): LeakyReLU(negative_slope=0.01)\n      (2): Linear(in_features=30, out_features=30, bias=True)\n      (3): LeakyReLU(negative_slope=0.01)\n      (4): Linear(in_features=30, out_features=30, bias=True)\n      (5): LeakyReLU(negative_slope=0.01)\n      (6): Linear(in_features=30, out_features=30, bias=True)\n      (7): LeakyReLU(negative_slope=0.01)\n      (8): Linear(in_features=30, out_features=30, bias=True)\n      (9): LeakyReLU(negative_slope=0.01)\n      (10): Linear(in_features=30, out_features=2, bias=True)\n    )\n  )\n  (q_net_target): QNetwork(\n    (features_extractor): FlattenExtractor(\n      (flatten): Flatten(start_dim=1, end_dim=-1)\n    )\n    (q_net): Sequential(\n      (0): Linear(in_features=3, out_features=30, bias=True)\n      (1): LeakyReLU(negative_slope=0.01)\n      (2): Linear(in_features=30, out_features=30, bias=True)\n      (3): LeakyReLU(negative_slope=0.01)\n      (4): Linear(in_features=30, out_features=30, bias=True)\n      (5): LeakyReLU(negative_slope=0.01)\n      (6): Linear(in_features=30, out_features=30, bias=True)\n      (7): LeakyReLU(negative_slope=0.01)\n      (8): Linear(in_features=30, out_features=30, bias=True)\n      (9): LeakyReLU(negative_slope=0.01)\n      (10): Linear(in_features=30, out_features=2, bias=True)\n    )\n  )\n)', 'q_net': 'QNetwork(\n  (features_extractor): FlattenExtractor(\n    (flatten): Flatten(start_dim=1, end_dim=-1)\n  )\n  (q_net): Sequential(\n    (0): Linear(in_features=3, out_features=30, bias=True)\n    (1): LeakyReLU(negative_slope=0.01)\n    (2): Linear(in_features=30, out_features=30, bias=True)\n    (3): LeakyReLU(negative_slope=0.01)\n    (4): Linear(in_features=30, out_features=30, bias=True)\n    (5): LeakyReLU(negative_slope=0.01)\n    (6): Linear(in_features=30, out_features=30, bias=True)\n    (7): LeakyReLU(negative_slope=0.01)\n    (8): Linear(in_features=30, out_features=30, bias=True)\n    (9): LeakyReLU(negative_slope=0.01)\n    (10): Linear(in_features=30, out_features=2, bias=True)\n  )\n)', 'q_net_target': 'QNetwork(\n  (features_extractor): FlattenExtractor(\n    (flatten): Flatten(start_dim=1, end_dim=-1)\n  )\n  (q_net): Sequential(\n    (0): Linear(in_features=3, out_features=30, bias=True)\n    (1): LeakyReLU(negative_slope=0.01)\n    (2): Linear(in_features=30, out_features=30, bias=True)\n    (3): LeakyReLU(negative_slope=0.01)\n    (4): Linear(in_features=30, out_features=30, bias=True)\n    (5): LeakyReLU(negative_slope=0.01)\n    (6): Linear(in_features=30, out_features=30, bias=True)\n    (7): LeakyReLU(negative_slope=0.01)\n    (8): Linear(in_features=30, out_features=30, bias=True)\n    (9): LeakyReLU(negative_slope=0.01)\n    (10): Linear(in_features=30, out_features=2, bias=True)\n  )\n)', 'batch_norm_stats': '[]', 'batch_norm_stats_target': '[]', 'exploration_schedule': '<function get_linear_fn.<locals>.func at 0x0000014C5FA3B880>', '_logger': '<stable_baselines3.common.logger.Logger object at 0x0000014C5FD0D400>'}
2025-07-23 16:07:50,285 INFO    MsgRouterThr:27760 [mailbox.py:close():129] [no run ID] Closing mailbox, abandoning 1 handles.
